checkpoints/best_model.pt (torch, 974967 bytes, 8 tensors)

fc1.weight f4 [256, 784]
0.031241793 -0.02179354 -0.012995597 -0.030877681 -7.4703246e-05 0.0037214532 -0.032013595 -0.011258015
0.008198049 0.0031982847 0.029193673 0.01759142 0.0068312194 -0.01501556 0.022819333 -0.012451399
-0.027669061 0.028146062 -0.022579785 -0.013593581 -0.020470075 0.034238275 0.034129564 0.0151151195
0.00014264137 0.009814713 0.016566597 -0.027598301 0.009706579 -0.032892913 0.025245514 -0.022750545
0.014134549 0.030912796 -0.021153651 -0.025827065 0.009047227 -0.03429341 -0.010899648 -0.013891573
0.013170025 0.008229088 -0.00687468 -0.024144432 -0.008059227 -0.0010720004 0.02068305 0.007864789
-0.016548172 0.003043045 -0.025944673 -4.2737567e-05 0.029851612 0.018227093 -0.00591339 0.016151294
-0.013695752 -0.030059071 0.025508573 -0.020344106 -0.031150337 0.032896932 0.017765503 0.012524812
0.020811401 0.016486693 0.02027538 -0.02217662 0.023171593 -0.020795347 -0.0069145625 -0.006787436
0.004631954 0.02809593 -0.03105991 0.013648023 0.018294662 0.015955513 -0.031085048 -0.020958634
-0.017804045 -0.0120931 -0.014073031 0.009979323 0.013016973 0.03489891 0.01825983 -0.023859007
-0.019543942 0.006228049 0.015867839 0.022897942 -0.014332494 0.03806034 0.037431106 0.006197708
0.039000794 -0.020669186 0.017143315 0.0019789329 -0.051491663 -0.0330692 -0.03840007 -0.023989987
0.020820806 0.02380123 -0.008617317 0.03260284 0.0013022444 -0.029741123 0.011223249 -0.034667194
0.032112006 -0.0010370108 0.031120196 -0.0039170985 0.029155888 -0.020992555 -0.017537853 0.017695514
0.034578063 0.0041159377 -0.022370692 0.039802697 0.018642489 0.019714871 -0.012622417 -0.053093024
0.0051090955 0.018536845 -0.027353274 0.026462931 -0.010523172 -0.021835702 -0.0087842075 0.029523412
0.015309898 -0.036025662 -0.019885292 0.022426197 -0.02521661 -0.032531347 -0.016845461 0.011124705
-0.01594278 -0.0123440875 0.046103805 0.030937372 0.017064165 -0.012315482 0.021033993 0.0067658476
0.013207618 -0.059281614 -0.038487434 -0.0058552274 0.05632761 0.018006282 0.010186868 0.017021265
-0.04848738 0.00019756281 0.0043436587 0.023420744 -0.036173772 0.00748098 0.013458936 -0.024023108
-0.0005936548 -0.025723157 0.021989465 -0.033266835 0.020307787 0.040653236 -0.021203304 0.0061686956
-0.0060123005 0.01364997 0.016983652 0.0040700887 -0.057370506 -0.07704503 -0.041194923 0.008044793
0.07033682 0.056383077 0.031928767 -0.043046977 -0.0076218224 -0.041796997 -0.008378406 0.025962187
0.009310883 -8.4104155e-05 -0.032629363 -0.013786622 0.02179712 -0.022684697 -0.012985353 -0.011744379
-0.023016488 0.0003363612 0.0044420324 0.03410208 0.00078284024 -0.0032370747 0.01860587 0.03073988
-0.044788975 -0.05807392 -0.031715274 0.04548245 0.05938761 0.039776407 0.021383129 0.008955425
-0.014081876 -0.011132217 -0.03130263 -0.03763469 0.008093269 -0.017646832 0.0008618882 -0.001998598
-0.013941406 0.012357188 0.03424786 -0.02650712 0.023755884 0.028002044 -0.021675203 -0.025803385
-0.0026669253 -0.01830507 -0.016226947 -0.006617521 -0.08223058 -0.03884931 -0.031095691 0.07615996
0.07773434 0.060931124 0.023860341 -0.02769562 -0.013445558 -0.04215676 -0.009316926 -0.023542823
-0.028349098 -0.04226891 0.016442766 -0.0064807083 -0.005529785 0.02701063 -0.030482953 0.002335282
00000000: caee ff3c 5e88 b2bc 7ceb 54bc 31f3 fcbc
00000010: 00aa 9cb8 a0e3 733b b020 03bd 8a73 38bc
00000020: 1c51 063c 509a 513b 9227 ef3c e21b 903c
00000030: 6cd8 df3b d303 76bc 9cef ba3c f400 4cbc
00000040: 3aaa e2bc 9292 e63c 3ef9 b8bc 9cb7 5ebc
00000050: dcb0 a7bc 6f3d 0c3d 71cb 0b3d 68a5 773c
00000060: 0092 1539 e4cd 203c acb6 873c d515 e2bc
00000070: 5808 1f3c b8ba 06bd aecf ce3c 5a5f babc
00000080: 9894 673c d53c fd3c 6c4a adbc 4893 d3bc
00000090: d23a 143c 3f77 0cbd 7094 32bc 7b99 63bc
000000a0: 17c7 573c 4cd3 063c ff44 e1bb 8bca c5bc
000000b0: d90a 04bc 5d82 8cba 806f a93c 51db 003c
000000c0: 0890 87bc d36d 473b ec89 d4bc 1d41 33b8
000000d0: 5e8b f43c fc50 953c 1cc5 c1bb b84f 843c
000000e0: 2664 60bc 713e f6bc 5bf7 d03c afa8 a6bc
000000f0: fe2e ffbc efbe 063d f688 913c de34 4d3c
00000100: ac7c aa3c 1a0f 873c 8e18 a63c beab b5bc
00000110: 5ad2 bd3c 015b aabc 8e93 e2bb 2469 debb
00000120: a5c7 973b 7029 e63c 5a71 febc f59b 5f3c
00000130: b0de 953c 23b5 823c 12a6 febc 71b1 abbc
00000140: cad9 91bc 2322 46bc 9292 66bc 5080 233c
00000150: 2445 553c 29f2 0e3d a495 953c f773 c3bc
00000160: 9e1a a0bc a914 cc3b 45fd 813c 7794 bb3c
00000170: d6d2 6abc 29e5 1b3d 5c51 193d 2516 cb3b
00000180: 4cbf 1f3d 6d52 a9bc 2370 8c3c fcb0 013b
00000190: ece8 52bd 9273 07bd 6449 1dbd a686 c4bc
000001a0: 6590 aa3c ccfa c23c a62f 0dbc 8e8a 053d
000001b0: 12b0 aa3a a8a3 f3bc b8e1 373c 30ff 0dbd
000001c0: e187 033d 4fec 87ba c8ef fe3c 015b 80bb
000001d0: 54d8 ee3c 94f8 abbc 8bab 8fbc 2ff6 903c
000001e0: baa1 0d3d fdde 863b be42 b7bc 2708 233d
000001f0: 22b8 983c 1581 a13c 41ce 4ebc 1278 59bd
00000200: 336a a73b 95da 973c f913 e0bc cac8 d83c
00000210: 6269 2cbc c9e0 b2bc a3eb 0fbc 15db f13c
00000220: 5ed6 7a3c a58f 13bd 7be6 a2bc 25b7 b73c
00000230: 1093 cebc 973f 05bd 7eff 89bc 6544 363c
00000240: 6f9a 82bc db3e 4abc 58d7 3c3d 5f70 fd3c
00000250: 26ca 8b3c e0c6 49bc 7b4f ac3c 0bb4 dd3b
00000260: c464 583c 47d1 72bd 00a5 1dbd 35dd bfbb
00000270: c8b7 663d e981 933c d2e6 263c 2e70 8b3c
00000280: b49a 46bd dd28 4f39 4055 8e3b dcdc bf3c
00000290: f32a 14bd 0223 f53b de82 5c3c 1ccc c4bc
000002a0: 809f 1bba 5fb9 d2bc 4023 b43c ce42 08bd
000002b0: 845c a63c 0284 263d 8db2 adbc c522 ca3b
000002c0: d502 c5bb 20a4 5f3c 4d21 8b3c 615e 853b
000002d0: 56fd 6abd c9c9 9dbd 02bc 28bd 4fce 033c
000002e0: c00c 903d f1f1 663d bdc7 023d 0752 30bd
000002f0: 7bc0 f9bb 5433 2bbd 9545 09bc a7ae d43c
00000300: ac8c 183c 1361 b0b8 5ea6 05bd 49e1 61bc
00000310: e08f b23c 42d5 b9bc 85c0 54bc 7f6b 40bc
00000320: 138d bcbc a359 b039 788e 913b 9fae 0b3d
00000330: 8537 4d3a 1a25 54bb 566b 983c 33d2 fb3c
00000340: a574 37bd ebde 6dbd e0e7 01bd ce4b 3a3d
00000350: 6c40 733d 96ec 223d ac2b af3c c6b9 123c
00000360: abb7 66bc e763 36bc 3037 00bd d526 1abd
00000370: a199 043c 1790 90bc 57f0 613a e9fa 02bb
00000380: 7f6a 64bc ce75 4a3c 7c47 0c3d 7625 d9bc
00000390: b39b c23c 8b64 e53c 3290 b1bc 9f61 d3bc
000003a0: 95c7 2ebb 84f4 95bc 60ee 84bc cad7 d8bb
000003b0: 8268 a8bd 7420 1fbd 64bc febc c1f9 9b3d
000003c0: 2f33 9f3d ea92 793d c376 c33c ede1 e2bc
000003d0: c24a 5cbc 91ac 2cbd 05a6 18bc e1dc c0bc
000003e0: 5e3c e8bc 2a22 2dbd fbb2 863c 1f5c d4bb
000003f0: 3333 b5bb 6645 dd3c 63b7 f9bc 880b 193b

fc1.bias f4 [256]
-0.0021843738 -0.059218436 0.029744241 -0.07374837 0.073022656 0.023654258 0.06676734 0.058272272
0.021907523 -0.05109417 0.0057589635 0.00051814073 0.07269298 0.046657145 -0.054045472 0.04327803
0.12808312 -0.021655923 0.06296595 -0.021277804 0.04094093 0.01854095 0.071021765 0.028799204
0.019379318 -0.035509307 -0.0148162525 -0.039788198 -0.022822913 -0.004713912 0.016562946 0.0074940226
-0.008101643 0.01818644 0.057239342 -0.0038893982 -0.009274402 0.0025703048 -0.005944867 -0.013702668
0.110875435 -0.040517144 0.037988048 0.0718354 0.118192844 0.016999243 0.045857046 0.051029243
0.027349796 0.016065307 0.0025457283 0.03625265 -0.0076513696 0.026481377 0.0049666613 -0.056697503
0.008448291 0.023056878 0.0146133695 0.06440758 -0.015424956 -0.029479884 -0.0017021553 0.04034334
-0.003394924 -0.038605213 0.012016494 -0.005410013 -0.0079585705 0.08084801 0.012958037 0.07941616
0.001974678 -0.036258265 -0.03638356 -0.0063358005 -0.021822616 -0.050682317 0.035153165 -0.04225854
0.096433066 0.036382914 0.0037003637 0.029962009 0.017710121 -0.09056959 0.039581176 0.015728064
-0.025600282 -0.03206169 0.058051754 0.012725788 0.035232052 0.016565612 0.013231805 0.073746294
0.02192072 0.036042336 -0.0007447349 0.05412268 -0.029608665 0.0022073148 0.023183296 0.009196396
0.010916786 0.09965951 -0.04622175 0.0018722166 -0.1105722 0.05442538 -0.0050495015 0.004210099
-0.010956527 -0.017529406 -0.02718894 0.012337983 0.007742837 0.0074772746 0.046264343 0.033444986
-0.027792241 -0.060407855 0.03344797 0.103694595 0.02300308 -0.026403759 0.06841633 -0.041684445
0.053292595 -0.011267705 0.08223228 0.013160122 0.022535432 -0.04501134 -0.06657382 0.011125679
0.04128819 -0.04989994 -0.018174084 -0.091777675 0.06770398 0.06801766 0.0006021211 -0.0077512315
-0.024577511 0.004613467 -0.03143017 0.012726051 -0.0062774885 -0.030783404 0.04962386 0.019712763
-0.03645277 -0.0049777497 -0.03676247 -0.05406452 0.0559825 0.05853107 0.01777954 0.00073848065
0.04982558 0.076179005 0.06714903 0.03413853 0.063666396 -0.0011487632 0.0014581524 0.06539611
0.022802176 0.11985202 0.027641337 -0.027420629 -0.027015753 -0.015111628 -0.01599166 0.021390565
0.0072151986 -0.003113596 0.023351809 -0.021711351 0.0586663 -0.0008820499 0.017854553 0.023755735
0.02699111 0.011554119 -0.03819799 0.0033228649 -0.050034843 0.010187419 0.008477527 0.007004956
0.0100494 0.0015510471 0.017909992 -0.016489185 -0.022412451 -0.010517324 0.021510879 0.049612593
0.035831485 0.06186023 0.016328929 0.029693335 -0.00083936204 -0.049853403 -0.010815466 0.032686863
-0.007930422 0.08151428 -0.016753368 0.028291762 -0.04228107 -0.049264412 0.00017458315 0.052512392
-0.01325226 0.0059440527 0.04768798 0.026440741 0.04240723 0.013955574 0.018014139 0.07836654
-0.053235773 -0.007825334 -0.031058293 -0.0023354567 -0.011339621 0.06026222 0.08481319 -0.051173475
-0.014229678 0.043193012 -0.044647615 0.024979606 0.10431538 0.019366374 0.04827492 0.007702543
0.025332754 -0.0004238115 0.0009922251 0.033159934 -0.00658851 -0.0029574032 -0.04763811 0.016507752
0.018051308 0.021257287 -0.10918037 0.048926637 0.051597673 0.0199738 0.009907075 -0.044995695
00000000: b627 0fbb 088f 72bd 32aa f33c 6309 97bd
00000010: e78c 953d 93c6 c13c 51bd 883d e8ae 6e3d
00000020: 6877 b33c 1f48 51bd b0b5 bc3b d6d3 073a
00000030: 0fe0 943d 901b 3f3d c95e 5dbd 4e44 313d
00000040: 3928 033e c367 b1bc 4bf4 803d ca4e aebc
00000050: adb1 273d 31e3 973c dc73 913d 4fec eb3c
00000060: 60c1 9e3c 3572 11bd debf 72bc f3f8 22bd
00000070: 1ef7 babc 2977 9abb 04af 873c 6b90 f53b
00000080: c1bc 04bc bbfb 943c cd73 6a3d 46e5 7ebb
00000090: a9f3 17bc 8f72 283b 29cd c2bb 2881 60bc
000000a0: a912 e33d 4ef5 25bd 5b99 1b3d 701e 933d
000000b0: 170f f23d ff41 8b3c 99d4 3b3d 0a04 513d
000000c0: ae0c e03c 649b 833c 3cd6 263b a97d 143d
000000d0: 57b8 fabb 79ef d83c 60bf a23b a43b 68bd
000000e0: b36a 0a3c c7e1 bc3c ea6c 6f3c 1fe8 833d
000000f0: f4b8 7cbc cc7f f1bc db1a dfba 0f3f 253d
00000100: 607d 5ebb 8020 1ebd d4e0 443c 7a46 b1bb
00000110: aa64 02bc a493 a53d f24d 543c f1a4 a23d
00000120: 9969 013b 8c83 14bd ee06 15bd 8c9c cfbb
00000130: 58c5 b2bc 4398 4fbd c4fc 0f3d 4a17 2dbd
00000140: b37e c53d 4006 153d cd81 723b e372 f53c
00000150: d114 913c 8d7c b9bd df1f 223d 24d8 803c
00000160: afb7 d1bc 1e53 03bd adc7 6d3d d37f 503c
00000170: 7c4f 103d 9bb4 873c 36ca 583c 4c08 973d
00000180: 1593 b33c 21a1 133d 503a 43ba beaf 5d3d
00000190: df8d f2bc 99a8 103b e5ea bd3c 7bac 163c
000001a0: 52dc 323c 491a cc3d 0553 3dbd 2a65 f53a
000001b0: ad73 e2bd 26ed 5e3d 4a76 a5bb dff4 893b
000001c0: 0183 33bc d499 8fbc 57bb debc 4025 4a3c
000001d0: a0b7 fd3b ed03 f53b ae7f 3d3d 9cfd 083d
000001e0: 8eac e3bc 3a6e 77bd bd00 093d d55d d43d
000001f0: f570 bc3c b24c d8bc dc1d 8c3d 4fbd 2abd
00000200: 5649 5a3d 2e9c 38bc 6669 a83d 8d9d 573c
00000210: 3a9c b83c d05d 38bd db57 88bd 7b48 363c
00000220: ce1d 293d e163 4cbd d1e1 94bc eff5 bbbd
00000230: 62a8 8a3d d84c 8b3d aad7 1d3a 0bfe fdbb
00000240: c756 c9bc 912c 973b ecbc 00bd ed80 503c
00000250: 64b3 cdbb 7a2d fcbc 6342 4b3d a97c a13c
00000260: 804f 15bd 641c a3bb 3e94 16bd c272 5dbd
00000270: e84d 653d 46be 6f3d 66a6 913c 9996 413a
00000280: e815 4c3d bd03 9c3d 6e85 893d d8d4 0b3d
00000290: 8763 823d 1992 96ba 7a1f bf3a 65ee 853d
000002a0: a1cb ba3c fa74 f53d 1670 e23c 3aa1 e0bc
000002b0: 2450 ddbc c396 77bc f100 83bc 443b af3c
000002c0: 796d ec3b 790d 4cbb 4b4c bf3c 01dc b1bc
000002d0: 134c 703d 5e39 67ba b643 923c 639b c23c
000002e0: 761c dd3c 7d4d 3d3c 7f75 1cbd 6cc4 593b
000002f0: 56f1 4cbd 22e9 263c 53e5 0a3c d489 e53b
00000300: 3da6 243c 814c cb3a fab7 923c 5414 87bc
00000310: 519a b7bc db50 2cbc 9537 b03c 9336 4b3d
00000320: 09c4 123d 2761 7d3d 3fc4 853c 703f f33c
00000330: a208 5cba 1533 4cbd 5a33 31bc a9e2 053d
00000340: 9aee 01bc f5f0 a63d 5c3e 89bc 20c4 e73c
00000350: ea2e 2dbd 7bc9 49bd 4f10 3739 3c17 573d
00000360: 0220 59bc 54c6 c23b 7954 433d 419a d83c
00000370: 34b3 2d3d eba5 643c 6392 933c a37e a03d
00000380: c10d 5abd d435 00bc f66d febc 760e 19bb
00000390: d1c9 39bc 85d5 763d 8ab2 ad3d 479b 51bd
000003a0: 9823 69bc 28eb 303d 6be0 36bd 08a2 cc3c
000003b0: 4da3 d53d 3ba6 9e3c ecbb 453d 9d65 fc3b
000003c0: a386 cf3c 0433 deb9 8d0d 823a b6d2 073d
000003d0: 6de4 d7bb fed0 41bb 2e20 43bd 443b 873c
000003e0: 56e0 933c c323 ae3c f599 dfbd 4c67 483d
000003f0: 1558 533d 18a0 a33c 4951 223c 684d 38bd

fc2.weight f4 [128, 256]
0.08912326 0.076429896 0.03542264 0.07003852 -0.018926704 -0.07217475 0.08435781 0.06775561
-0.064223684 -0.040826373 -0.034424756 -0.0037213922 -0.03405491 -0.045874946 -0.045486737 -0.043862216
0.1502781 -0.069403775 0.042096317 0.030372852 0.014755937 -0.028923517 0.0035050765 -0.07983289
0.00010795319 -0.030333668 -0.00919523 0.008375725 -0.05249308 0.021512862 -0.06681483 -0.0024135034
0.02522904 0.06990251 0.032711286 -0.011266453 0.006696296 -0.027385218 -0.025482446 0.033152647
0.009885764 0.043111518 0.037742935 0.039396293 0.00018516886 0.023803376 0.061151735 0.027096106
-0.017001027 -0.043199707 -0.05426731 0.06265612 0.076163135 -0.03636854 -0.032437894 -0.018732792
-0.021529479 -0.025155442 0.051184244 -0.06920388 0.120463885 0.007605292 -0.047610436 -0.022562565
0.009688622 0.008993958 0.05571815 -0.048835922 0.033320338 0.0794896 0.044484843 -0.031137506
-0.006247846 0.023500163 0.048706386 0.073166825 -0.04047059 0.14233188 -0.0032915282 0.06578401
-0.05569719 -0.041895848 -0.032629866 0.04249021 0.08683341 0.04542891 0.077962376 -0.063120306
-0.032679953 0.029345537 0.025060989 0.028978536 -0.043338813 0.05305387 0.032288305 -0.017495638
0.034232233 -0.03673517 -0.06648116 0.08572706 0.11260061 0.057100274 0.02662015 -0.042582937
0.092498675 -0.04673401 0.004805295 0.034278985 0.039679658 -0.0029583396 -0.008047009 -0.031008163
-0.009976576 -0.018518645 0.059007384 -0.030778702 0.048494965 0.058658004 0.030293092 -0.036670115
0.012882066 0.02979915 0.037105765 0.03563204 -0.04338677 -0.0022516535 -0.028346065 0.10496662
0.007976769 0.07613533 -0.07623553 0.019164266 0.02620005 -0.007290021 0.012859917 -0.01723405
-0.07011212 0.050906084 -0.06745111 0.057496395 0.06618604 -0.0647553 -0.034453392 -0.08393328
0.01839299 -0.011692295 0.04005027 0.10751108 -0.031477112 0.010380493 0.0018675035 0.01952968
0.04936451 -0.054878518 -0.081637725 0.008029561 0.038390275 -0.06454733 -0.026109574 0.011726412
0.010205665 -0.030844832 -0.013434388 0.008294701 -0.006328758 0.089189425 0.006489864 0.03753418
-0.082486175 -0.083994895 0.048688974 -0.08716304 0.06435466 0.08082376 -0.02667269 -0.06332629
-0.031518422 0.0010146013 0.031492148 -0.02214067 -0.0012935094 0.047922693 -0.0039948407 -0.074585676
0.03957899 -0.07000861 0.096852675 -0.006643847 0.04964901 -0.05574955 -0.008313311 0.0030693577
0.024512682 -0.05123607 -0.0643452 0.019057108 -0.05629854 0.04327318 -0.0046993275 -0.020645171
0.074981146 0.07112485 -0.030204127 0.026058119 -0.0610091 0.08009637 0.03639873 0.07963716
-0.07159282 0.07032162 0.023070985 -0.045707803 0.032831065 0.06047832 -0.018363576 0.08395345
0.015313236 0.120241754 -0.045822646 -0.0022107477 -0.030544665 -0.05553649 -0.006487038 -0.0366773
0.021324195 0.014843527 -0.06946028 -0.04451507 0.047966473 -0.02923075 0.05256667 0.04476715
0.13527551 0.11596093 0.054312002 0.06513311 0.08518945 0.035260264 0.052569985 -0.031606793
0.0019616403 0.088523135 -0.055948287 -0.027869081 -0.048973516 -0.09186333 -0.08617145 -0.044481054
-0.041263655 -0.051399816 0.02129121 -0.0062408177 0.05965973 0.039183248 0.04257832 0.100581616
00000000: 4186 b63d 4787 9c3d 5517 113d 5b70 8f3d
00000010: 2d0c 9bbc 5bd0 93bd cac3 ac3d 74c3 8a3d
00000020: b587 83bd 8e39 27bd f900 0dbd 9ae2 73bb
00000030: 297d 0bbd 5ee7 3bbd 4d50 3abd dea8 33bd
00000040: 81e2 193e 9123 8ebd 306d 2c3d 7dd0 f83c
00000050: e3c2 713c 03f1 ecbc 6db5 653b 6d7f a3bd
00000060: ed64 e238 507e f8bc 97a7 16bc 563a 093c
00000070: fc02 57bd be3b b03c 37d6 88bd de2b 1ebb
00000080: 22ad ce3c 0c29 8f3d 45fc 053d ee96 38bc
00000090: 9a6c db3b f756 e0bc 90c0 d0bc 12cb 073d
000000a0: e6f7 213c b495 303d 5698 1a3d 025e 213d
000000b0: e329 4239 4cff c23c 3e7a 7a3d a7f8 dd3c
000000c0: bd45 8bbc 2df2 30bd 6647 5ebd da51 803d
000000d0: 6bfb 9b3d 2ef7 14bd 99dd 04bd 8375 99bc
000000e0: 975e b0bc c912 cebc 92a6 513d c4ba 8dbd
000000f0: c5b5 f63d d035 f93b 2903 43bd 21d5 b8bc
00000100: 07bd 1e3c 655b 133c b738 643d 2d08 48bd
00000110: e87a 083d 72cb a23d bd35 363d 1514 ffbc
00000120: bbba ccbb 6a83 c03c 5980 473d 7dd8 953d
00000130: 7dc4 25bd 73bf 113e aeb6 57bb c4b9 863d
00000140: bd22 64bd fb9a 2bbd e5a6 05bd 370a 2e3d
00000150: b7d5 b13d aa13 3a3d bdaa 9f3d 3845 81bd
00000160: 6adb 05bd 0d66 f03c b44c cd3c 6564 ed3c
00000170: 0a84 31bd 044f 593d be40 043d 0353 8fbc
00000180: 1937 0c3d 9e77 16bd 4627 88bd ab91 af3d
00000190: 269b e63d fae1 693d 8012 da3c 726b 2ebd
000001a0: f26f bd3d 296c 3fbd bc75 9d3b 1f68 0c3d
000001b0: 2387 223d b4e0 41bb 9ad7 03bc d504 febc
000001c0: cb74 23bc 6ab4 97bc bab1 713d 9e23 fcbc
000001d0: a8a2 463d 6043 703d 3829 f83c 6733 16bd
000001e0: 4d0f 533c 591d f43c 37fc 173d e7f2 113d
000001f0: 53b6 31bd 7a90 13bb 0236 e8bc bdf8 d63d
00000200: feb0 023c d7ec 9b3d 6021 9cbd 61fe 9c3c
00000210: 7da1 d63c 21e1 eebb 67b2 523c 6c2e 8dbc
00000220: f196 8fbd e682 503d cf23 8abd 5781 6b3d
00000230: 8c8c 873d 6d9e 84bd 001f 0dbd 36e5 abbd
00000240: e5ac 963c 0a91 3fbc c00b 243d c52e dc3d
00000250: 25ee 00bd f112 2a3c 05c7 f43a b5fc 9f3c
00000260: 7132 4a3d 4cc8 60bd ae31 a7bd 6b8e 033c
00000270: 1f3f 1d3d 6431 84bd bfe3 d5bc 2320 403c
00000280: a935 273c 4dae fcbc e81b 5cbc 7fe6 073c
00000290: 7861 cfbb f2a8 b63d eda8 d43b 71bd 193d
000002a0: 83ee a8bd 8405 acbd 176e 473d 8982 b2bd
000002b0: 60cc 833d ed86 a53d af80 dabc 37b1 81bd
000002c0: 7619 01bd 5ffc 843a e9fd 003d 5a60 b5bc
000002d0: f98a a9ba 964a 443d 27e7 82bb 60c0 98bd
000002e0: 941d 223d ad60 8fbd b25a c63d a1b4 d9bb
000002f0: c35c 4b3d a459 64bd 8e34 08bc 4727 493b
00000300: d2ce c83c eadc 51bd 6bc7 83bd a71d 9c3c
00000310: 4c99 66bd 383f 313d d1fc 99bb 1020 a9bc
00000320: b78f 993d e8a9 913d a56e f7bc d677 d53c
00000330: aee4 79bd 9109 a43d d616 153d cf18 a33d
00000340: 429f 92bd c804 903d 5dff bc3c 1b38 3bbd
00000350: de79 063d 1db8 773d 366f 96bc c9ef ab3d
00000360: 5ee4 7a3c 4f41 f63d 87b0 3bbd 31e2 10bb
00000370: ce38 fabc 3b7a 63bd 3891 d4bb f03a 16bd
00000380: 14b0 ae3c 4432 733c 3141 8ebd 6f55 36bd
00000390: 7e78 443d 5375 efbc 2650 573d c25d 373d
000003a0: aa85 0a3e ed7c ed3d 4376 5e3d 8264 853d
000003b0: ce77 ae3d 116d 103d a053 573d 2076 01bd
000003c0: dd8e 003b 9e4b b53d 082a 65bd b34d e4bc
000003d0: 7498 48bd d722 bcbd a87a b0bd c431 36bd
000003e0: 1404 29bd 9d88 52bd e76a ae3c c67f ccbb
000003f0: c35d 743d 9d7e 203d 9b66 2e3d bcfd cd3d

fc2.bias f4 [128]
-0.026449725 -0.07625164 0.07296806 0.13410583 0.058532946 -0.0018286842 0.09012113 0.020020196
0.062731825 0.06458523 0.010768295 0.09460422 0.069252774 0.033175968 0.074314 -0.005291419
-0.036211263 -0.08181647 0.021755967 -0.027360613 0.09979425 0.07366351 0.184264 -0.042680353
0.10683883 0.03912772 0.07511503 0.15740223 -0.04395636 0.09195815 0.04066033 0.054969285
0.10605594 0.053282823 0.032798573 -0.03890551 0.012044807 -0.0659298 -0.008079572 0.025598904
0.018721467 0.09348824 -0.045255125 0.0054838755 0.010006464 0.007863987 -0.024214387 0.07381987
0.09548205 0.055478726 0.059408523 0.071444035 0.0002881282 0.08681282 0.0711225 -0.03806716
0.18658061 0.03407794 0.086777404 -0.0075620306 0.07082694 -0.07395809 0.029294679 0.033796225
0.19407928 0.07623158 0.023939298 0.02040581 0.014956649 -0.019349441 0.009486907 -0.042316943
0.12208745 0.03365932 0.023170961 0.007760541 0.026080882 -0.039653156 0.14983341 -0.0256695
0.016034454 -0.021718537 0.14978132 0.11002649 0.0507703 0.10492482 -0.0524859 -0.03199655
0.078613244 0.136948 0.044644147 0.027442332 -0.038967457 0.062204387 0.03942473 0.102969214
0.02440183 0.030149465 0.04761601 0.08596209 0.040751357 -0.004705063 0.051283363 0.049929146
0.012662446 -0.037753772 -0.051239055 0.16798629 0.118519865 0.0028496073 0.1119572 -0.029051797
-0.0013086649 0.104373485 -0.04786855 0.0013615564 0.016392462 -0.042822592 0.055179562 0.060459875
-0.00527765 0.034468386 0.06516213 0.020347837 0.056970622 -0.0014141236 0.036955036 0.039862864
00000000: 18ad d8bc d229 9cbd 4770 953d 0a53 093e
00000010: 3ec0 6f3d 76b0 efba 6d91 b83d 6501 a43c
00000020: 8b79 803d 4345 843d 816d 303c dbbf c13d
00000030: 66d4 8d3d 86e3 073d f031 983d a463 adbb
00000040: 4352 14bd 658f a7bd 9239 b23c 5d23 e0bc
00000050: ee60 cc3d e5dc 963d b4af 3c3e 98d1 2ebd
00000060: 51ce da3d 6344 203d e9d5 993d 0d2e 213e
00000070: 960b 34bd 8e54 bc3d 728b 263d 7927 613d
00000080: db33 d93d 173f 5a3d cc57 063d 625b 1fbd
00000090: 9557 453c 3406 87bd 2e60 04bc cbb4 d13c
000000a0: c35d 993c c376 bf3d 705d 39bd 15b2 b33b
000000b0: 27f2 233c f4d7 003c 405d c6bc df2e 973d
000000c0: 188c c33d a93d 633d 5a56 733d 4051 923d
000000d0: ea0f 9739 ebca b13d aca8 913d 4fec 1bbd
000000e0: fd0e 3f3e 4f95 0b3d 5ab8 b13d e9ca f7bb
000000f0: b70d 913d 5777 97bd 65fb ef3c e96d 0a3d
00000100: b8bc 463e 4d1f 9c3d 591c c43c 162a a73c
00000110: bc0c 753c b882 9ebc f96e 1b3c 8854 2dbd
00000120: fc08 fa3d 5bde 093d 07d1 bd3c 234c fe3b
00000130: 93a7 d53c 596b 22bd ee6d 193e d848 d2bc
00000140: b05a 833c 13eb b1bc 4660 193e 9255 e13d
00000150: 85f4 4f3d d3e2 d63d 75fb 56bd d00e 03bd
00000160: fbff a03d 193c 0c3e c8dc 363d bece e03c
00000170: 579c 1fbd 07ca 7e3d d37b 213d 86e1 d23d
00000180: 59e6 c73c 03fc f63c 0109 433d e40c b03d
00000190: e5ea 263d ee2c 9abb 810e 523d 8182 4c3d
000001a0: 2676 4f3c b3a3 1abd 0be0 51bd 9904 2c3e
000001b0: 8bba f23d 7ac0 3a3b d149 e53d 09fe edbc
000001c0: 8287 abba c4c1 d53d d011 44bd 4076 b23a
000001d0: 7c49 863c be66 2fbd f703 623d c6a4 773d
000001e0: 23f0 acbb b92e 0d3d b973 853d 82b0 a63c
000001f0: 075a 693d 1d5a b9ba 2a5e 173d 3e47 233d

fc3.weight f4 [64, 128]
-0.05584627 -0.061361987 -0.09184884 -0.07109367 -0.05786867 -0.02462626 0.089601606 -0.014485048
0.0071351137 0.048993364 -0.064321816 -0.046974506 0.06326077 -0.07199006 0.08077582 0.0024945687
0.010477727 0.081052594 0.016079836 0.0058823144 -0.0011793001 -0.016826743 -0.11412657 0.03658402
0.006367633 0.07331167 0.086159356 0.026967624 -0.05704012 0.08355411 -0.0010061451 0.03413018
0.02541082 0.027525805 0.016118877 -0.03378087 -0.064761505 -0.019728923 -0.09110635 -0.03607675
-0.0056461724 -0.0998891 -0.08997312 -0.03243285 -0.068334766 0.060541894 0.062291723 -0.05152337
-0.09369592 0.03143288 -0.040034782 -0.08344099 0.025383396 0.02455144 -0.029292831 -0.069681026
-0.11319871 0.053263817 0.10180187 0.077712856 0.11409343 -0.06411034 -0.071648136 0.08272218
-0.058367144 -0.054114882 -0.09239684 -0.02788661 -0.054240037 -0.028784491 0.022267006 0.033493668
-0.06720908 -0.024240103 0.09233505 -0.023151062 0.019811131 0.07849831 -0.05024359 -0.031637613
0.0045094495 0.0955547 0.077481054 -0.064932294 0.069058746 -0.041048322 0.073222294 0.06857128
-0.03374414 -0.043782428 0.051887065 0.069377914 -0.054478247 0.06284057 0.07075646 -0.06513552
-0.09545833 -0.030128704 0.06623837 0.046743106 -0.032660663 -0.0068826145 0.079365104 0.053660773
0.07495584 0.06036651 0.059031703 0.010362987 -0.061041854 -0.019343771 0.042111445 0.040467188
0.027943756 -0.06698322 -0.015362254 -0.04130349 0.058613103 0.048675146 -0.044229865 0.024701733
7.650539e-05 0.06456147 0.103777856 -0.027361378 0.07199193 -0.05630572 0.06312987 -0.07117129
0.18186897 -0.03401606 0.11506378 0.10017128 0.07139696 0.091030315 0.0700545 0.34679562
0.053134486 0.045239635 0.028524527 -0.04254902 -0.024487307 0.05907154 -0.00074020564 0.0034778954
-0.01497226 -0.06414514 0.16307847 0.2705626 0.05459856 -0.060269 -0.031881016 -0.017847363
-0.019299285 0.19176207 0.08535717 -0.003817466 0.08851551 -0.16687861 0.10543072 0.27951357
-0.047723427 -0.06321758 0.029593343 0.07400486 0.07993592 -0.08346493 0.19363381 0.08424501
-0.15058309 0.12320915 -0.13315636 0.08318992 0.15297301 0.10198006 -0.063280426 0.041861672
0.007367379 -0.06904471 -0.045542467 -0.036262967 0.056862917 -0.06349237 0.004609725 0.035842936
-0.057430174 0.2679048 0.123695344 -0.12013 -0.025323775 -0.033539265 -0.1866435 -0.034598183
-0.07660823 0.120489046 0.2078516 -0.1109246 -0.003943927 -0.09251232 -0.1525781 0.06551662
0.10457122 0.25105447 0.20973508 -0.061345052 0.17964727 0.022832008 0.10993478 0.09313523
0.096776694 0.15442847 -0.21491867 -0.113473766 -0.059535637 0.055669915 0.0455887 0.15357634
-0.16970833 -0.045260996 -0.027601894 -0.018263724 0.029537713 0.13789216 -0.112265155 0.25556743
-0.018696252 -0.15013698 -0.07854317 -0.022747958 -0.047077905 -0.08139253 -0.046380185 -0.10603184
-0.008751982 -0.038702242 0.12199848 -0.14897996 0.08465004 -0.008709328 0.1981073 -0.015226701
0.09653023 0.021083396 -0.0056903553 0.024325004 -0.051532567 -0.047823094 0.2519506 0.031807248
0.075012684 -0.11511556 0.06951656 0.028332936 0.056641698 -0.10475558 0.13722956 -0.10601944
00000000: 0fbf 64bd b556 7bbd 3f1b bcbd 8f99 91bd
00000010: b307 6dbd 03bd c9bc 0c81 b73d b252 6dbc
00000020: accd e93b 44ad 483d 28bb 83bd 5768 40bd
00000030: dd8e 813d 866f 93bd cb6d a53d eb7b 233b
00000040: c6aa 2b3c e7fe a53d dcb9 833c 6ec0 c03b
00000050: bf92 9aba 3dd8 89bc 31bb e9bd 20d9 153d
00000060: 94a7 d03b 6e24 963d 5174 b03d 35eb dc3c
00000070: e7a2 69bd 6b1e ab3d a1e0 83ba 16cc 0b3d
00000080: 5a2a d03c cc7d e13c bc0b 843c cf5d 0abd
00000090: aea1 84bd 8d9e a1bc f795 babd 37c5 13bd
000000a0: 8703 b9bb a892 ccbd d443 b8bd 4fd8 04bd
000000b0: 19f3 8bbd c7fa 773d 9b25 7f3d 2b0a 53bd
000000c0: a6e3 bfbd c3bf 003d 83fb 23bd 1ce3 aabd
000000d0: d7f0 cf3c 1a20 c93c 85f7 efbc edb4 8ebd
000000e0: bad4 e7bd 292b 5a3d 807d d03d eb27 9f3d
000000f0: d1a9 e93d 484c 83bd 42bc 92bd 3f6a a93d
00000100: 6312 6fbd 91a7 5dbd 8e3a bdbd 7672 e4bc
00000110: cd2a 5ebd 74cd ebbc 4c69 b63c a830 093d
00000120: eaa4 89bd 2e93 c6bc 291a bd3d 4ca7 bdbc
00000130: f44a a23c b9c3 a03d 39cc 4dbd 7196 01bd
00000140: 01c4 933b 2fb2 c33d 63ae 9e3d 39fb 84bd
00000150: ac6e 8d3d 4922 28bd 92f5 953d 196f 8c3d
00000160: 4c37 0abd 3455 33bd 8887 543d 0216 8e3d
00000170: 9524 5fbd 8fb2 803d c3e8 903d c665 85bd
00000180: a87f c3bd 79d0 f6bc fca7 873d b375 3f3d
00000190: 30c7 05bd 8e87 e1bb 2c8a a23d 66cb 5b3d
000001a0: 7382 993d e042 773d 3acb 713d 85c9 293c
000001b0: 0607 7abd d476 9ebc 0d7d 2c3d ecc0 253d
000001c0: 4eea e43c 802e 89bd f7b1 7bbc d92d 29bd
000001d0: 4b14 703d 975f 473d 602a 35bd 4a5b ca3c
000001e0: 8571 a038 ce38 843d 7c89 d43d f824 e0bc
000001f0: 8170 933d d4a0 66bd 3c4a 813d 41c2 91bd
00000200: dc3b 3a3e 6d54 0bbd 8fa6 eb3d 9a26 cd3d
00000210: 9238 923d 1a6e ba3d bc78 8f3d 328f b13e
00000220: 8ca3 593d 324d 393d 45ac e93c e247 2ebd
00000230: 9b99 c8bc 00f5 713d 5c0a 42ba 67ed 633b
00000240: 364e 75bc 875e 83bd 0bfe 263e 2e87 8a3e
00000250: bda2 5f3d a0dc 76bd ab95 02bd a234 92bc
00000260: 8919 9ebc 475d 443e bdcf ae3d 742e 7abb
00000270: 9f47 b53d 3ae2 2abe 10ec d73d 671c 8f3e
00000280: a479 43bd 3878 81bd bd6d f23c dc8f 973d
00000290: 72b5 a33d a9ef aabd f147 463e a688 ac3d
000002a0: 7432 1abe 1455 fc3d 245a 08be 7a5f aa3d
000002b0: f5a4 1c3e ecda d03d 2b99 81bd 2577 2b3d
000002c0: 0e6a f13b 5067 8dbd bd8a 3abd 7a88 14bd
000002d0: 17e9 683d 4a08 82bd 2d0d 973b 0bd0 123d
000002e0: e73b 6bbd d12a 893e fc53 fd3d b806 f6bd
000002f0: ce73 cfbc 7860 09bd 791f 3fbe d3b6 0dbd
00000300: c7e4 9cbd f6c2 f63d 0dd7 543e 702c e3bd
00000310: 0f3c 81bb 1977 bdbd 6f3d 1cbe 942d 863d
00000320: 7029 d63d 368a 803e cbc4 563e f344 7bbd
00000330: 74f5 373e 310a bb3c 7c25 e13d afbd be3d
00000340: dc32 c63d 7f22 1e3e a413 5cbe ef64 e8bd
00000350: a4db 73bd 2306 643d 37bb 3a3d 1e43 1d3e
00000360: 05c8 2dbe 9863 39bd 5e1d e2bc ce9d 95bc
00000370: 13f9 f13c 9a33 0d3e 46eb e5bd bcd9 823e
00000380: e228 99bc 82bd 19be 3edb a0bd ed59 babc
00000390: c3d4 40bd 20b1 a6bd 26f9 3dbd 3927 d9bd
000003a0: 7964 0fbc 3e86 1ebd 57da f93d 348e 18be
000003b0: 005d ad3d 92b1 0ebc a4dc 4a3e 6a79 79bc
000003c0: a4b1 c53d 16b7 ac3c 2976 babb 3b45 c73c
000003d0: d013 53bd 26e2 43bd abff 803e 5148 023d
000003e0: 40a0 993d b5c1 ebbd b35e 8e3d 791a e83c
000003f0: 2001 683d 188a d6bd e885 0c3e b820 d9bd

fc3.bias f4 [64]
-0.08647735 0.030945199 -0.047014207 -0.026918365 0.1339864 0.22162212 0.18875821 0.23559701
0.14443883 -0.06732157 0.007648465 -0.0018590817 -0.03693543 -0.060428854 -0.06404648 0.008232691
0.027902594 0.01228166 0.03701101 0.0260608 -0.0132781435 -0.08426006 0.21769503 -0.03785509
0.206788 0.075442575 0.07179972 -0.074946545 -0.046911806 0.10939105 0.18278177 0.12778361
-0.009794929 0.12412631 0.03938309 0.0023930226 0.17662975 0.029789042 0.026435426 0.21224594
0.12254262 -0.017856713 0.19335781 0.13042533 0.1725246 0.18010035 0.16183446 -0.07451357
-0.04863675 0.07783329 0.041143116 -0.0045352895 -0.032605093 -0.03197621 -0.02753439 0.072464354
-0.020041488 -0.02880212 0.150573 0.029090231 0.14617446 0.05752489 0.10647577 -0.03651627
00000000: 091b b1bd c980 fd3c f891 40bd e783 dcbc
00000010: bb33 093e e9f0 623e d549 413e 5840 713e
00000020: c6e7 133e e4df 89bd fa9f fa3b 6eac f3ba
00000030: 9b49 17bd 3f84 77bd cd2a 83bd 69e2 063c
00000040: fb93 e43c 0439 493c db98 173d 757d d53c
00000050: 928c 59bc 8a90 acbd 72eb 5e3e f00d 1bbd
00000060: 3cc0 533e a381 9a3d bb0b 933d 937d 99bd
00000070: 9826 40bd 6a08 e03d 252b 3b3e b5d9 023e
00000080: e97a 20bc ef35 fe3d 2a50 213d 42d4 1c3b
00000090: 6ede 343e 2608 f43c 1b8f d83c 0057 593e
000000a0: a0f7 fa3d 3e48 92bc 97ff 453e 388e 053e
000000b0: 4aaa 303e 3a6c 383e efb7 253e 929a 98bd
000000c0: 5437 47bd 0f67 9f3d af85 283d c49c 94bb
000000d0: eb8c 05bd 7df9 02bd cd8f e1bc 3168 943d
000000e0: 0c2e a4bc 6cf2 ebbc cf2f 1a3e a34e ee3c
000000f0: c2ae 153e 389f 6b3d f80f da3d 1692 15bd

fc4.weight f4 [10, 64]
-0.0492762 -0.22975832 -0.0030443612 -0.057665166 -0.2015006 0.50924623 -0.16933985 -0.28914797
-0.3383199 0.32480276 -0.13999578 0.016466182 0.24359827 0.014407482 -0.013875839 -0.0005121918
-0.25792885 -0.045595795 -0.2595742 -0.039623484 -0.008437406 -0.023325324 -0.15530881 0.17869972
-0.15583253 -0.33498156 -0.34228978 0.007986269 0.024091825 -0.17962527 -0.40862995 -0.5373485
0.11192084 -0.45788452 -0.28906578 -0.178278 -0.046294883 -0.2158162 0.6004123 0.005239042
0.40019563 0.22295472 0.4196022 -0.3976441 -0.05546587 0.12374943 0.15405114 -0.03715766
0.22322354 0.034273513 -0.17890851 0.16490018 0.07263143 -0.20540826 0.0412674 0.27186564
0.12553309 -0.020029012 0.59380877 -0.10351004 -0.14257023 0.03865664 -0.4261794 -0.07579269
0.08524277 0.47833416 0.18663728 0.07936674 0.30318567 -0.57401264 -0.13938345 0.35516462
-0.4188362 0.029922403 -0.137589 -0.08907693 -0.5414332 0.008041159 -0.04734782 0.14857312
0.12556691 0.07790022 -0.19973488 0.034826223 -0.059529666 0.0679281 0.48585847 -0.1920158
0.2939618 0.33760804 0.434444 0.07691259 -0.025486134 -0.15267983 -0.05555577 0.5046652
0.018589513 0.27642778 0.17018144 -0.0075768656 0.3516297 0.41496745 0.14575185 0.21442635
-0.38513404 -0.6028947 -0.48917326 -0.09592271 0.11859525 0.059092477 0.048155114 -0.05608858
-0.06116949 0.52073944 -0.04099338 -0.050542254 0.22120187 -0.020326542 0.11144915 -0.31293574
0.117327295 -0.121589705 -0.330296 -0.023141924 0.08257583 -0.44038588 -0.07107906 -0.0036193633
-0.06649054 0.7080225 -0.1230646 -0.012466578 -0.5312993 -0.316241 0.326808 -0.087255925
-0.29838812 0.080921926 -0.16307338 0.015144788 0.33984628 0.042852424 -0.0894754 0.19640164
0.011948798 0.08751993 -0.060461838 -0.010324168 -0.1165754 0.008673578 -0.14406838 0.020342594
-0.40292558 0.36277634 0.28265795 0.08163756 -0.074484125 -0.18413934 -0.4802856 -0.019621158
-0.07170363 -0.07103807 0.38575733 -0.068032466 -0.10829738 -0.40083086 0.0680229 -0.28127673
-0.08109144 0.31612977 0.3294767 0.46474835 -0.23646952 -0.53771454 0.08674892 -0.030711733
0.20219725 0.1194397 -0.20686871 -0.22731417 -0.013826335 0.24326599 -0.051863346 0.38881508
0.05977827 -0.054621797 -0.2411419 0.103852294 -0.099667355 0.3223504 -0.26773566 0.1304952
0.033975784 -0.024494547 0.030044433 0.10074504 -0.0043092123 -0.29157788 -0.07552789 -0.24485157
-0.49572325 -0.11789266 0.13880295 -0.048501458 0.4141494 -0.04245752 0.050132055 -0.17056638
0.13804282 -0.10237925 -0.04591934 -0.07509376 -0.06961775 0.051717777 -0.36159116 0.3788695
-0.3190405 -0.0019684187 -0.4107052 0.03435248 0.08745622 0.17558119 0.5911468 0.22051099
0.07066825 0.5120795 0.1846203 -0.12633154 0.122642435 0.3192408 -0.29510185 0.4777053
-0.39570993 0.43646613 -0.18333614 0.5537781 -0.08718614 0.0074388585 -0.38903096 0.11777791
-0.1640806 -0.24295047 -0.031361558 -0.22851923 0.07955376 -0.018285094 -0.109028734 -0.17879444
0.086991385 -0.08931021 -0.089530036 -0.04896127 0.10485111 0.13553597 -0.06420033 0.11469477
00000000: d7d5 49bd c445 6bbe e883 47bb 4f32 6cbd
00000010: 2c56 4ebe f65d 023f 6d67 2dbe 340b 94be
00000020: 4438 adbe 8c4c a63e 0e5b 0fbe 16e4 863c
00000030: d371 793e 5c0d 6c3c 7d57 63bc 9c44 06ba
00000040: 400f 84be a8c2 3abd e9e6 84be 3c4c 22bd
00000050: 0c3d 0abc c014 bfbc 4609 1fbe 0ffd 363e
00000060: 9092 1fbe b482 abbe 9b40 afbe d7d8 023c
00000070: 385c c53c b0ef 37be f237 d1be ac8f 09bf
00000080: c136 e53d d76f eabe 6e00 94be 828e 36be
00000090: b49f 3dbd ecfe 5cbe 9fb4 193f 45ac ab3b
000000a0: 71e6 cc3e 3e4e 643e 19d6 d63e 0298 cbbe
000000b0: 2e30 63bd 5770 fd3d 95bf 1d3e a132 18bd
000000c0: b694 643e 6262 0c3d cb33 37be 98db 283e
000000d0: cabf 943d 8b56 52be 0108 293d f931 8b3e
000000e0: bf8b 003e e213 a4bc da03 183f 12fd d3bd
000000f0: eefd 11be 6d56 1e3d 3034 dabe 3339 9bbd
00000100: c393 ae3d 37e8 f43e d81d 3f3e 088b a23d
00000110: 273b 9b3e 7ef2 12bf 89ba 0ebe 23d8 b53e
00000120: b371 d6be d41f f53c 21e4 0cbe f76d b6bd
00000130: 5e9b 0abf 11bf 033c caef 41bd 8d23 183e
00000140: 9d94 003e 278a 9f3d 4d87 4cbe f1a5 0e3d
00000150: 61d5 73bd e31d 8b3d 71c2 f83e ca9f 44be
00000160: 2982 963e f6da ac3e 726f de3e 5984 9d3d
00000170: 4cc8 d0bc 1a58 1cbe 728e 63bd bd31 013f
00000180: 0949 983c f187 8d3e 0b44 2e3e 5b47 f8bb
00000190: cf08 b43e 9d76 d43e f93f 153e 9592 5b3e
000001a0: 4a30 c5be 4f57 1abf eb74 fabe 2073 c4bd
000001b0: 11e2 f23d f40a 723d 4c3e 453d 24bd 65bd
000001c0: dc8c 7abd 2e4f 053f ade8 27bd 6505 4fbd
000001d0: be82 623e d983 a6bc 743f e43d 1d39 a0be
000001e0: 4b49 f03d 0604 f9bd 8f1c a9be 2294 bdbc
000001f0: 841d a93d 427a e1be e691 91bd d732 6dbb
00000200: 312c 88bd f640 353f 4b09 fcbd 9e40 4cbc
00000210: 3b03 08bf 57ea a1be 6153 a73e 3cb3 b2bd
00000220: 54c6 98be 65ba a53d b5fc 26be d821 783c
00000230: 5500 ae3e 0686 2f3d e13e b7bd 831d 493e
00000240: e4c4 433c a63d b33d d5a6 77bd b326 29bc
00000250: 15bf eebd 9f1b 0e3c a986 13be 83a5 a63c
00000260: 434c cebe d2bd b93e 8bb8 903e 9831 a73d
00000270: 228b 98bd 068f 3cbe ffe7 f5be 8dbc a0bc
00000280: 5ad9 92bd 687c 91bd fc81 c53e 9b54 8bbd
00000290: 04cb ddbd b439 cdbe 974f 8b3d 8103 90be
000002a0: 4513 a6bd c3db a13e 2cb1 a83e 7ff3 ed3e
000002b0: 1125 72be a9a7 09bf 6ba9 b13d 2c97 fbbc
000002c0: cc0c 4f3e cd9c f43d 64d5 53be 0cc5 68be
000002d0: da87 62bc b81a 793e a96e 54bd c512 c73e
000002e0: 0fda 743d 1bbb 5fbd e7ed 76be 83b0 d43d
000002f0: 661e ccbd 1d0b a53e a614 89be 89a0 053e
00000300: 312a 0b3d caa8 c8bc be1f f63c 6a53 ce3d
00000310: 4b34 8dbb b249 95be 5eae 9abd 5fba 7abe
00000320: 70cf fdbe b571 f1bd 5c22 0e3e 77a9 46bd
00000330: 640b d43e f0e7 2dbd 4557 4d3d f4a8 2ebe
00000340: 195b 0d3e 36ac d1bd eb15 3cbd c2ca 99bd
00000350: c093 8ebd 05d6 533d 7a22 b9be 2ffb c13e
00000360: 4759 a3be 9600 01bb f447 d2be 30b5 0c3d
00000370: 3f1c b33d 8ecb 333e 6655 173f a2cd 613e
00000380: 84ba 903d a417 033f 1b0d 3d3e 0e5d 01be
00000390: f52b fb3d 8873 a33e 9717 97be ca95 f43e
000003a0: 7e9a cabe 7d78 df3e 78bc 3bbe 67c4 0d3f
000003b0: a68e b2bd abc1 f33b 112f c7be 8b35 f13d
000003c0: bf04 28be 02c8 78be fa74 00bd f200 6abe
000003d0: 15ed a23d 9fca 95bc 754a dfbd e415 37be
000003e0: 8a28 b23d 45e8 b6bd 865b b7bd 9d8b 48bd
000003f0: 2ebc d63d f1c9 0a3e 767b 83bd 17e5 ea3d

fc4.bias f4 [10]
-0.04050096 0.19774832 -0.22757898 -0.04863979 0.016843662 0.19223472 -0.15557685 0.023980001
-0.107320204 0.03519164
00000000: 56e4 25bd 897e 4a3e 770a 69be 843a 47bd
00000010: b8fb 893c 2ed9 443e 8a4f 1fbe b571 c43c
00000020: b2ca dbbd 1c25 103d
